Training on TRAIN set
Loading word vectors...
Trying to load from npy dump.
____________________________________________________________________________________________________
Layer (type)                     Output Shape          Param #     Connected to                     
====================================================================================================
input_2 (InputLayer)             (None, 40)            0                                            
____________________________________________________________________________________________________
input_1 (InputLayer)             (None, 33)            0                                            
____________________________________________________________________________________________________
embedding_2 (Embedding)          (None, 40, 50)        2602550     input_2[0][0]                    
____________________________________________________________________________________________________
embedding_1 (Embedding)          (None, 33, 50)        2602550     input_1[0][0]                    
____________________________________________________________________________________________________
conv1d_2 (Conv1D)                (None, 40, 100)       25100       embedding_2[0][0]                
____________________________________________________________________________________________________
conv1d_1 (Conv1D)                (None, 33, 100)       25100       embedding_1[0][0]                
____________________________________________________________________________________________________
global_max_pooling1d_2 (GlobalMa (None, 100)           0           conv1d_2[0][0]                   
____________________________________________________________________________________________________
global_max_pooling1d_1 (GlobalMa (None, 100)           0           conv1d_1[0][0]                   
____________________________________________________________________________________________________
dense_1 (Dense)                  (None, 100)           10000       global_max_pooling1d_2[0][0]     
____________________________________________________________________________________________________
dot_1 (Dot)                      (None, 1)             0           global_max_pooling1d_1[0][0]     
                                                                   dense_1[0][0]                    
____________________________________________________________________________________________________
concatenate_1 (Concatenate)      (None, 201)           0           global_max_pooling1d_1[0][0]     
                                                                   dot_1[0][0]                      
                                                                   global_max_pooling1d_2[0][0]     
____________________________________________________________________________________________________
dense_2 (Dense)                  (None, 201)           40602       concatenate_1[0][0]              
____________________________________________________________________________________________________
dropout_1 (Dropout)              (None, 201)           0           dense_2[0][0]                    
____________________________________________________________________________________________________
dense_3 (Dense)                  (None, 1)             202         dropout_1[0][0]                  
====================================================================================================
Total params: 5,306,104
Trainable params: 101,004
Non-trainable params: 5,205,100
____________________________________________________________________________________________________
None
 Loss, Acc: 15.655022 0.020000 Loss, Acc: 15.017314 0.060000 Loss
…
